Project/SE-GNN/GNN-TCP_Best.model (torch, 760607 bytes, 13 tensors)

node_embedding.weight f4 [23398, 8]
000000 2b 8d 2d bf 6a 72 89 be 18 ea d5 3f 6a 4d 60 bd
       -0.6779353 -0.26845104 1.6712065 -0.054761328
000010 75 11 f4 be 46 60 fd 3e c4 f1 a5 bd 1e da b0 be
       -0.4766957 0.49487513 -0.08102754 -0.3454141
000020 e0 2a 9c bf b0 38 0a 3f b2 c5 ca bf a3 b9 9e 3f
       -1.2200584 0.5399275 -1.5841582 1.2400402
000030 00 1d a6 3f 24 b9 c1 bb cf bf 4f 3e b0 d0 96 bf
       1.29776 -0.005911963 0.20288013 -1.1782436
000040 06 0b 89 bf bf 70 66 3f cb 8b 72 3f d1 c0 af 3f
       -1.0706489 0.90015787 0.9474456 1.3730718
000050 33 4e f0 3e 0a ef b8 3d 88 65 f2 bd 86 b4 39 bf
       0.4693466 0.09029968 -0.11835772 -0.7254108
000060 5c c2 04 c0 f5 17 43 bd 3f 3e ce 3e 25 c5 12 3c
       -2.0743628 -0.04763027 0.40281865 0.008958136
000070 57 62 4d 3f ca 9b 65 3f 61 09 aa 3f 15 40 6a bf
       0.8022818 0.8969084 1.3284112 -0.9150403
000080 a8 04 ec 3e e8 f9 7d 3e 53 54 25 3e a8 cd 21 bf
       0.46097302 0.24802363 0.16145448 -0.6320443
000090 97 b0 07 3f 9a a5 c1 bd 70 b5 90 bc 96 e4 8b 3f
       0.5300383 -0.09455414 -0.017664641 1.0929134
0000a0 8c 3c 55 3f d7 55 cb 3e 3a 60 a3 3f 62 77 a8 bc
       0.8329551 0.39713928 1.2763741 -0.020564739
0000b0 0a 4c d5 3e 57 a6 8f bf 31 f1 54 3f 08 d2 bc 3e
       0.41659576 -1.1222638 0.8318053 0.3687899
0000c0 08 44 ac bf 7b ff d3 be 0b 9f a6 3e 7a 96 8e be
       -1.3458261 -0.41405854 0.32543215 -0.2784918
0000d0 74 8b 81 3f fe f1 5b bf 1d f0 ae bd 9e 8e 16 bf
       1.0120683 -0.85916126 -0.08541892 -0.58811367
0000e0 a5 a9 b1 bf d6 91 20 bf d2 79 1d 40 88 14 a5 3f
       -1.3879896 -0.6272253 2.4605603 1.2896891
0000f0 d6 89 cf 3f 02 cb 46 bf 72 48 c3 3e 13 11 43 c0
       1.6213939 -0.77653515 0.3814121 -3.0479171
000100 68 dc 7f be 94 60 af bd 00 38 f9 be 25 27 99 3e
       -0.24986422 -0.08563343 -0.48675537 0.29912677
000110 74 6e 75 bf fd 09 70 3f 44 f5 52 3f d9 9e 8e 3f
       -0.95871663 0.9376524 0.82405496 1.1142226
000120 bb 14 50 3e ff f4 55 3e a0 bc 26 bf eb d9 8b bf
       0.20320408 0.2089424 -0.6513157 -1.0925878
000130 e9 3a 4c 3f fd 81 1c bf f2 bb 02 bf 0f 6a 70 be
       0.7977739 -0.61135846 -0.5106803 -0.23477958
000140 f0 b9 7b bf 1c ad dd be 7b 34 02 be fa 34 e9 3e
       -0.98330593 -0.43296134 -0.12715332 0.4554823
000150 0a f0 10 bf 0e 28 66 be 2a 64 5e bd 5e 06 ef 3e
       -0.5661627 -0.22476217 -0.054294743 0.46684545
000160 09 fa 02 c0 e5 af 4c 3f 42 0e af bd 9f 12 27 bf
       -2.046511 0.79955894 -0.08547641 -0.6526279
000170 6e 9b b0 be ac a4 ff 3c 3e 72 38 bd f5 8d 89 bf
       -0.34493583 0.031206451 -0.045030825 -1.0746447
000180 ce 73 01 3f 06 36 25 3d 63 77 a6 3d 55 de 86 3f
       0.5056733 0.040334724 0.0812824 1.05366
000190 34 6f 52 3d c5 d4 84 bf 5c f9 49 bf ee 0e 95 bf
       0.051375583 -1.0377432 -0.7889612 -1.1645181
0001a0 b0 95 dc bf 8f d4 41 bf 5c f2 1f bf eb 99 44 bf
       -1.7233181 -0.75714964 -0.62479186 -0.7679736
0001b0 1d cd c9 be 12 9c 95 bf 4a 91 18 bd a0 28 8d bd
       -0.39414302 -1.1688254 -0.037247933 -0.06892514
0001c0 22 9f c2 be 3a 24 88 be df 13 45 3f db ca 96 bd
       -0.38012034 -0.2659014 0.76983446 -0.0736291
0001d0 f9 10 8f bf 32 e0 2d bf 68 e6 eb b9 7b 3f 0f 3f
       -1.1177055 -0.6792022 -0.0004499436 0.5595624
0001e0 f3 ad e1 bf b1 e4 25 bf 38 e1 8e 3f c8 5f 80 be
       -1.763121 -0.6480208 1.1162481 -0.25073075
0001f0 12 ca bf 3e c4 f4 18 bf f9 27 4d 3d 70 64 4d 3f
       0.37458855 -0.5974848 0.05008695 0.8023138
000200 ec d3 87 bf 50 14 d7 3e d3 f4 d6 bf 00 14 e0 3d
       -1.0611548 0.42007685 -1.6793464 0.10941315
000210 a0 52 86 bf 48 7a 3b 3f 82 fc 4b 3e 45 c3 b9 bd
       -1.0493965 0.7323346 0.19920543 -0.09070448
000220 0a d9 0d 3f 24 f2 05 bf ac db 5d 3f c4 c0 14 40
       0.554093 -0.523226 0.8666332 2.3242655
000230 17 39 f6 3d 7c 80 d9 be 61 08 d3 3e 7e fa 28 be
       0.12022608 -0.42480838 0.4121733 -0.16501805
000240 09 91 ba bf 1a b3 0c bf 74 4e c3 bf bf c3 c3 be
       -1.4575511 -0.5496079 -1.5258317 -0.3823528
000250 78 c0 80 bf 09 1a 7c bf 56 03 61 bf cd 81 f0 3f
       -1.0058737 -0.98477226 -0.87895715 1.8789612
000260 36 6b 19 3e 07 1d 89 3f 78 52 5e 3f cb 7c a0 3f
       0.14982304 1.0711983 0.8684459 1.2538084
000270 07 44 9c be df 38 f7 3e bd e8 c2 be e0 e1 04 bf
       -0.3052065 0.48285577 -0.3806819 -0.5190716
000280 57 fe 63 bf 42 2a b3 be 14 a4 fa bf 59 db e5 bf
       -0.89059967 -0.34993178 -1.9581323 -1.7957565
000290 b4 0a a6 bf 05 10 81 bf 34 2f a3 bd 77 87 a9 bf
       -1.2972016 -1.0083014 -0.07967988 -1.3244466
0002a0 df 7a 8a bf 19 7f da bf b9 ae 99 bf 85 74 e8 be
       -1.0818747 -1.7070037 -1.2006446 -0.45401397
0002b0 22 dc cb 3f da 0a c1 bf 28 80 96 be db 0d e9 3e
       1.5926554 -1.5081437 -0.2939465 0.45518383
0002c0 3f 79 0d bf 82 a0 9b bf 21 bf e4 3f 55 01 95 bf
       -0.5526313 -1.2158358 1.7870828 -1.1641032
0002d0 00 17 e5 3f 28 d9 46 be b4 f6 26 3d ab ca 8f 3f
       1.7897644 -0.19418776 0.04076262 1.1233724
0002e0 66 f4 41 3f a1 a8 36 3f 11 5e 2e 3f 1c 05 2c 3e
       0.7576355 0.7135106 0.68112284 0.16798824
0002f0 2f 9d 8e be c3 2d 93 bf e9 d7 5b bf 2f 53 b0 bf
       -0.27854297 -1.149834 -0.8587633 -1.3775386
000300 a2 d9 09 40 1a 35 ae 3f 4c 91 df 3e 13 5e ba 3e
       2.1539083 1.3609955 0.4366554 0.36399898
000310 d1 bd 5e 3f 66 b7 2d 3e 8e 5e a0 bf bd f9 23 40
       0.87008387 0.16964492 -1.2528856 2.5621178
000320 61 cd 91 bf da 82 30 bf 64 7c d3 3e 24 4d 9a bd
       -1.1390802 -0.68949664 0.4130584 -0.07534245
000330 ed 8e 0c c0 88 3a 49 bf d7 f5 85 bf 61 09 08 bf
       -2.1962235 -0.78604937 -1.0465649 -0.5313931
000340 60 92 0c bd 28 35 9d 3f 59 16 bd 3f 93 cf 58 3d
       -0.03431928 1.2281847 1.4772445 0.052932333
000350 83 24 44 bf 73 28 d6 bf fa 0c f8 be 35 6f 7b 3f
       -0.7661821 -1.6731094 -0.484474 0.98216563
000360 bc 00 1c 3e 0c 99 03 3f bb 3e 6f 3f 55 e8 4a 3f
       0.15234655 0.51405406 0.93455094 0.7926076
000370 1a 88 f0 3e 3e b2 a2 3f 9a 6e 99 3e 17 75 4b bf
       0.46978837 1.2710645 0.29967195 -0.7947554
000380 e9 29 a0 3f 68 48 9f bf b0 d2 13 40 bb 9f 3a 3e
       1.251279 -1.2443972 2.3097343 0.18224995
000390 b1 08 44 bf b4 e0 47 3f f1 d6 35 bf fd 04 b5 3e
       -0.7657576 0.78077245 -0.710311 0.35355368
0003a0 b6 6c 18 3e ab 58 f0 3e 0c b2 78 bf 00 f2 d3 3f
       0.1488522 0.46942648 -0.9714668 1.6558228
0003b0 09 04 d3 3e 14 ee cf 3f 4c 2a 73 be c3 59 45 3f
       0.41214016 1.6244531 -0.23746604 0.7709009
0003c0 84 a6 04 c0 58 e8 a5 bf d8 d6 f7 3e e6 9d 5f 3f
       -2.0726633 -1.2961531 0.484061 0.8735031
0003d0 ed da e8 be d7 e9 24 3f 99 34 a0 3e 86 12 f5 be
       -0.45479527 0.6441931 0.3129013 -0.47865695
0003e0 3d f9 48 3f 6f 06 08 bf 60 31 20 3f 4e b5 97 bf
       0.7850531 -0.53134817 0.6257534 -1.1852205
0003f0 0a 16 33 3f 0f 89 a3 3e 0f a8 e3 3e d3 5b 8a be
       0.69955504 0.31940505 0.44464156 -0.2702318

times_embedding.weight f4 [4, 4]
000000 2d 13 41 bf 3d ee 57 3f 0f f1 a2 bf 7a 8d 1e 3f
       -0.75419885 0.843479 -1.2729815 0.61934626
000010 20 e7 1e c0 b2 b9 97 be c6 60 05 3f a9 fd 1b 40
       -2.4828568 -0.29633862 0.5210079 2.4373572
000020 72 0e 93 bf 7e 75 b0 3f 71 99 e9 3e d9 70 8d bf
       -1.1488783 1.3785856 0.4562488 -1.1050063
000030 bf ed e9 bf 0a e4 21 40 a4 22 44 40 c2 58 07 bf
       -1.8275679 2.5295434 3.0646143 -0.5286981

interval_embedding.weight f4 [3, 4]
000000 ec c3 22 bf c0 e7 28 3f 07 2b 31 3f 9d 47 2a bf
       -0.63580203 0.6597862 0.6920628 -0.66515523
000010 af 68 31 bf 33 e7 52 c0 32 1c b2 3f 8b 67 07 40
       -0.6930036 -3.2953613 1.3914855 2.1156948
000020 ec 6c 30 3f 61 4e 78 c0 3c d8 15 bf 6f 23 91 bf
       0.689162 -3.8797839 -0.5853307 -1.1338938

connection_embedding.weight f4 [25, 8]
000000 37 2c d6 3f 40 1e 05 c0 93 85 28 3f fe e5 3f be
       1.6732243 -2.0799713 0.6582882 -0.18740079
000010 c3 6f 2a 3e f7 23 3b bf 0b 30 8f 3f 9b c2 08 40
       0.16644196 -0.73101753 1.1186537 2.1368778
000020 1d d1 0c c0 fc 27 df 3f a1 22 37 bf 55 93 49 3f
       -2.2002633 1.7434077 -0.71537215 0.78740436
000030 f1 5b d9 3f 13 8e 39 40 21 b1 05 c0 aa 66 4c bf
       1.6981183 2.8992965 -2.088936 -0.7984415
000040 4c cb d0 3f e0 44 ea 3f 4e 2f fd bf ce dc ce 3f
       1.6312041 1.8302269 -1.9780061 1.6161134
000050 bc 0c e8 3f cf cc 74 3f fc 6d 58 c0 9f 25 94 bf
       1.8128886 0.95625013 -3.381713 -1.1573981
000060 f0 59 4e 3f 5f 4d 82 be 1d 06 d8 bf 90 76 55 40
       0.80605984 -0.25449654 -1.6876866 3.3353615
000070 cd e9 45 3f 6b 24 19 3f ea 56 33 c0 c5 d5 39 bf
       0.77309877 0.59821194 -2.8021798 -0.7259181
000080 a7 26 5c 3f c9 6e 51 40 16 0a 74 3b 7e d3 1b be
       0.8599648 3.2723868 0.0037237457 -0.15217397
000090 ee 2f 00 40 28 ae 59 40 a9 0a e5 bf 6b c5 13 bf
       2.0029254 3.4012547 -1.7893878 -0.5772311
0000a0 ab 13 8a 3e c2 0c 09 40 2c e7 81 3f 6b f8 7c 3f
       0.2696813 2.1414037 1.0148673 0.98816556
0000b0 a6 97 24 3f eb 94 12 40 fb 71 24 c0 12 56 04 c0
       0.642939 2.2903392 -2.5694568 -2.0677533
0000c0 10 6b 8a 3e db cb 0d 3f be 46 c7 be cb 17 22 40
       0.27034807 0.55389184 -0.3892116 2.5327022
0000d0 d2 e1 95 3f 2f 0e cd 3f ea 9a 33 c0 0b 78 73 c0
       1.170954 1.6019953 -2.8063302 -3.8042018
0000e0 89 89 6c be 60 da 3f c0 72 ed 8f 3e 6b 70 8f bf
       -0.2309934 -2.9977036 0.28110844 -1.1206182
0000f0 5b c5 8c bd dc 5c 8d 3f 26 9e 03 3e b4 b8 68 c0
       -0.0687358 1.1043963 0.12853298 -3.6362734
000100 3f c7 88 bf db 10 17 40 81 95 b8 bf 87 a6 bd 3f
       -1.0685805 2.3604038 -1.4420625 1.4816445
000110 be b3 a5 3f 52 1d 81 40 64 6d 4b c0 54 ae bc bf
       1.2945478 4.034829 -3.1785517 -1.4740701
000120 e0 16 33 c0 33 cd 0f 40 84 98 c0 3f 3a 8b 9a 40
       -2.7982712 2.2468994 1.5046544 4.8294954
000130 6a 3e 62 bf dd 11 88 3f aa d7 9c bf 3f da 02 be
       -0.88376486 1.0630451 -1.2253315 -0.12778567
000140 85 48 af bf fa 41 0d 40 7e 67 a0 be 62 f8 0b 3f
       -1.3694006 2.207152 -0.31328958 0.5467588
000150 7e cf 02 3e fa 9a cf 3f 1b 6e 6b c0 f7 81 c4 bf
       0.12774464 1.621917 -3.6785953 -1.5352162
000160 8d d8 e4 bf 2e d4 cd 3f 8d 8c 11 bc 48 f6 51 40
       -1.7878586 1.6080377 -0.008883608 3.2806568
000170 41 e9 01 bf 55 8c 8e be 52 f7 72 c0 25 9a 57 c0
       -0.5074654 -0.2784144 -3.7963452 -3.3687832
000180 32 c8 61 bf 2f c5 0a 40 38 8f e3 3f 40 50 31 3d
       -0.881961 2.1682851 1.7778082 0.043289423
000190 09 ab 42 bf 4b 82 db 3f 33 7c dd bf 47 4a 1f c0
       -0.7604223 1.7149137 -1.7303528 -2.4889085
0001a0 42 65 e2 bf 4a 32 bf 3f e9 14 f4 be d9 0a d2 be
       -1.7687151 1.4937222 -0.47672203 -0.410239
0001b0 b2 33 ec 3f f4 7f eb 3f 7d 79 e6 bf 54 34 ff 3e
       1.8453276 1.8398423 -1.8005825 0.4984461
0001c0 c2 cb 87 3e ce 1e 27 40 8d 5a 0a c0 1e 2f ad 3f
       0.26522642 2.6112552 -2.1617768 1.3530004
0001d0 fe 28 1d 40 79 97 40 40 a0 a1 0e c0 64 31 1b bf
       2.455627 3.0092452 -2.2286148 -0.6062224
0001e0 24 14 06 c0 5b 0b 0c 40 f6 88 b2 be a5 43 e3 3f
       -2.0949793 2.188193 -0.34870118 1.7755018
0001f0 3a 19 1e 3f eb 1d e3 3f 79 4a db bf e9 5e 96 be
       0.6175724 1.7743505 -1.7132102 -0.29369286
000200 4f 3a ec bf 52 11 bc 3e d5 14 ce 3e ac a7 ff 3e
       -1.8455294 0.36731964 0.4025027 0.4993261
000210 b9 02 ca 3f bf 9d 91 40 17 e6 84 bf 58 8e f2 bf
       1.5782081 4.550506 -1.0382718 -1.894969
000220 b3 43 8a 3f 80 31 3d 40 ca 59 21 3f 40 af 06 bf
       1.080191 2.9561462 0.6302763 -0.5261116
000230 fd 75 ad 3f 86 7d bc 3f 0d e8 eb bf e5 19 d9 bf
       1.3551632 1.4725807 -1.8430191 -1.6961027
000240 35 50 ef be bc 3c a0 3f 2e f5 9d bf 66 bf 47 bf
       -0.4674088 1.2518535 -1.2340448 -0.78026426
000250 8a 2b bb bf e4 d1 66 bf ef 35 2a c0 55 6d 66 3f
       -1.4622662 -0.9016402 -2.6595418 0.9001058
000260 9f 66 de 3f 70 06 73 40 20 16 f8 bf 74 45 1a 40
       1.7375067 3.797268 -1.9381752 2.410489
000270 2c 7d 1e bf 5c 43 4b 3a 06 db 1f be 88 31 07 c0
       -0.6190975 0.0007753873 -0.15610895 -2.1123981
000280 bd eb c2 3f e3 b4 f4 3f a0 9c f2 3f e0 d5 2b 40
       1.5228192 1.9117702 1.8954048 2.684929
000290 04 29 84 3e aa e8 f8 3f 24 54 51 c0 2f 34 0f 40
       0.25812542 1.9446003 -3.2707605 2.23756
0002a0 84 2f d2 3e d8 bc ee 3f da 20 d6 3d 00 6d ba 3f
       0.41051877 1.865138 0.10455485 1.4564514
0002b0 55 b4 f8 3e 4f bd 4c 40 55 54 1f c0 ab d2 61 3e
       0.48575082 3.1990545 -2.4895222 0.2205302
0002c0 70 37 76 bf 9c 17 19 40 a0 cf 70 3e 55 53 33 3f
       -0.9617834 2.392066 0.23516703 0.7004903
0002d0 5a ab 3a 3f bc 3b 05 40 0d 9b f7 bf 25 e8 92 bf
       0.7291771 2.081771 -1.9344193 -1.1477095
0002e0 be 99 5a 3e 2f 32 98 3f 73 b3 4f c0 b5 ee 3e 40
       0.2134771 1.1890315 -3.2453277 2.9833195
0002f0 2a 98 b3 3f bf 54 b7 3f 02 27 9e 3f ea 36 90 bf
       1.4030812 1.4322737 1.2355654 -1.1266758
000300 74 a2 64 c0 1e a2 c9 3f c3 fa 9d bf f8 b2 2e bf
       -3.5724154 1.5752599 -1.2342151 -0.68241835
000310 17 77 c3 bf 28 a6 f4 3f 6d 3a 12 be b2 78 c0 bf
       -1.5270718 1.9113207 -0.142801 -1.5036833

score_MLP.fc_layers.0.weight f4 [32, 32]
000000 7f 24 0a 3b 91 4e 37 be 5d 01 ae 3d 8f ca fc be
       0.0021078882 -0.17901064 0.08496354 -0.4937329
000010 cd 39 b1 3e 9c 3c 11 bf 7d cf 7c 3e f7 48 db 3c
       0.3461441 -0.5673311 0.24688525 0.02676819
000020 65 d6 61 3f d9 ab 82 3e 0b a9 2a 3e e3 85 94 3e
       0.88217765 0.25521734 0.16666047 0.29008397
000030 e5 a3 35 3f f5 7a 16 3f 37 f4 5b 3e 89 7d a8 3d
       0.7095321 0.5878137 0.2147988 0.08227069
000040 7e 14 e9 be b0 0f 6f bd e9 dd bc be 62 0d 1e 3f
       -0.45523447 -0.05836457 -0.36888054 0.6173917
000050 fe b6 5f 3e 63 04 fc bd 30 4c 64 be 5c f1 f9 be
       0.2184715 -0.12305524 -0.22294688 -0.48816955
000060 8b 1c cb be 60 72 e9 be 9e a2 99 be 0c 9f 30 3f
       -0.39670214 -0.45595074 -0.3000688 0.68992686
000070 ac c6 b2 3f 51 ae 22 3f db f6 79 3d 2e 9e 12 3f
       1.396688 0.63547236 0.061026435 0.57272613
000080 e4 e3 8f 3e 7b 36 ab 3c ce 5c 8f 3e 11 64 9e be
       0.28103554 0.020900002 0.28000492 -0.3093572
000090 af 48 c3 bd ac 29 d1 bd e0 99 5a be ad 95 e3 bd
       -0.09535348 -0.102130264 -0.21347761 -0.11112533
0000a0 4b 65 d1 3e 11 d8 b3 3e bf cb 4e bf 20 b8 64 be
       0.40897593 0.35125783 -0.8077964 -0.22335863
0000b0 46 df 65 bf b1 ea c1 bd 1c 73 96 3e 44 60 a6 3e
       -0.89793813 -0.09468592 0.29384696 0.3249532
0000c0 bd d4 87 3e c6 a9 97 bf 42 fa 92 be 91 18 8a 3e
       0.26529494 -1.1848686 -0.28706557 0.26971868
0000d0 ed 63 8c 3e 10 7e 38 3f 39 d9 db be 62 0e cc be
       0.27419987 0.72067356 -0.42939165 -0.39854723
0000e0 be 3a 9f 3e 4a 19 7b 3f f3 4b fe be 79 6d 0e 3f
       0.31099504 0.98085463 -0.4966732 0.5563579
0000f0 0a fb 1a bf ad 95 1e bf 92 59 e0 bf e1 70 ab 3f
       -0.60539305 -0.6194714 -1.7527335 1.3393823
000100 f7 76 82 3d ed 47 b2 3e e9 0d 0f 3e 08 1c 12 3e
       0.06370347 0.348205 0.1397015 0.14268506
000110 61 2f f1 3d ef b0 4f 3e 22 f3 01 3e e2 9a f1 3c
       0.11776615 0.20282339 0.12690404 0.0294928
000120 75 06 f9 3e 79 a4 fe 3d 44 cf 7e 3e b3 b3 94 3e
       0.4863774 0.124337144 0.24883753 0.2904335
000130 98 96 9e 3d ea c7 45 be 21 cd a2 be e8 c5 1a bf
       0.07743567 -0.19314542 -0.31797126 -0.6045823
000140 3d 39 2d bf 80 fd 62 be ee d1 db 3e 83 84 3b 3f
       -0.67665464 -0.22167015 0.429336 0.7324907
000150 d4 44 cb be 9a af dc 3e dc cf c5 3e bc 4d 70 be
       -0.3970095 0.43102723 0.38635147 -0.23467153
000160 0f d0 7d 3f 55 88 27 bf a8 aa 35 3f f1 a0 50 bf
       0.991456 -0.654424 0.70963526 -0.8149558
000170 59 27 c2 be 23 52 99 bf c6 c9 15 3f 9a 13 b9 3f
       -0.37920645 -1.1978191 0.58511007 1.4459107
000180 e1 0a 32 3d 3e 53 73 3e 43 ed 0a 3c ce 46 10 3e
       0.043467406 0.23762223 0.008479419 0.1408951
000190 d8 6f c0 bd 31 55 17 3e 77 16 2a be d4 da ff 3e
       -0.093963325 0.14778592 -0.16610132 0.4997164
0001a0 74 47 8c be 31 53 25 3d 61 69 6d 3f b5 37 0e 3e
       -0.27398264 0.04036254 0.9273892 0.13888438
0001b0 37 48 f0 be b3 cf 02 3f 3d 62 6d 3d d1 36 25 be
       -0.46930096 0.51098174 0.057955015 -0.16134192
0001c0 20 87 21 3f a4 24 b2 3e 2a 47 4b bf 23 1d 03 bf
       0.6309681 0.3479358 -0.7940546 -0.51216334
0001d0 0b 67 99 be de e2 24 bf 5d 9d 68 3e 66 77 9f 3f
       -0.29961428 -0.6440867 0.2271628 1.2458313
0001e0 b3 9f 5f bf 46 09 bd 3d 73 92 85 bd cc 15 35 3f
       -0.87353057 0.092302844 -0.065220736 0.70736384
0001f0 20 21 3f 3f 34 d8 8f 3f b9 45 3e 3f bc 1f 02 3e
       0.7465992 1.1237855 0.7432514 0.12707418
000200 68 99 e4 bd 45 0b cb 3e 5e 06 1c bf c6 fc b4 3e
       -0.111620724 0.39657035 -0.60947216 0.353491
000210 78 49 60 bd e2 c3 52 be be ef 53 bd 99 ee 5a be
       -0.054757565 -0.20582536 -0.051742308 -0.2138008
000220 09 c1 bd 3f fa 9a 68 bd 7f 31 32 3e 17 35 29 bf
       1.4824535 -0.056788422 0.17401694 -0.66096634
000230 ef 98 2b bf 91 92 44 3e 7a c8 80 3d 70 6d 84 bf
       -0.67030233 0.19196536 0.06288238 -1.0345898
000240 fb 18 ab 3f 3a b5 de 3e 3a 4f c1 bf b2 92 70 be
       1.3366998 0.4349764 -1.5102303 -0.2349346
000250 b3 4f 05 3d 16 dd 71 3f f4 46 bf bd 41 10 ea be
       0.03254671 0.94477975 -0.09339705 -0.45715526
000260 40 2c 17 3d 1c 19 1d 3e 81 82 be be 3f 73 1e 3e
       0.036907434 0.1534161 -0.37208942 0.1547365
000270 c9 77 3d bf 95 d2 36 be 93 6e 4c be b8 f6 01 3c
       -0.740109 -0.17853768 -0.19964056 0.0079323575
000280 6b 9b a0 3c 94 a2 09 3f 8e e3 a6 be 56 00 6d 3e
       0.019605359 0.537637 -0.32595485 0.2314466
000290 38 d9 55 3d c1 29 85 3f 59 58 94 3c 44 b3 e1 bd
       0.05220911 1.0403367 0.018108534 -0.1102052
0002a0 3f 53 fc 3e 04 28 e5 be 4d 89 42 bc ae 0d 07 bf
       0.49282262 -0.44757092 -0.011873555 -0.5275525
0002b0 31 1b dc be 13 af f8 bd c9 46 df be 68 98 a5 3e
       -0.42989495 -0.12142768 -0.43608692 0.3234284
0002c0 37 ef 6c 3e dd 92 a8 3d 79 12 01 3f fd ec cd be
       0.23138128 0.08231137 0.5041881 -0.4021987
0002d0 6e 61 37 3f 4a d2 25 3e b8 47 39 bf 80 0d 41 bf
       0.7163304 0.161935 -0.7237506 -0.75411224
0002e0 3a f1 90 bf cf 55 13 3f 34 c8 e4 bf 7a dc b0 bf
       -1.1323617 0.5755281 -1.7873597 -1.3817284
0002f0 fd f2 a2 be b2 a7 46 3f 6c 2b 11 3f e7 2a f7 3e
       -0.3182601 0.7759963 0.5670688 0.4827492
000300 64 71 16 bf fd 1b c7 3d 8f 85 88 be 8b 09 8a be
       -0.5876677 0.09722135 -0.26664397 -0.26960406
000310 94 97 fa 3d c1 2a c0 bd 78 b3 f1 bd a9 07 cf bc
       0.122359425 -0.09383155 -0.11801809 -0.025272207
000320 f5 43 6b bd c4 4d 07 3f 58 6e 76 be d9 cb c5 bb
       -0.057437856 0.52853036 -0.2406553 -0.0060362634
000330 7e 16 00 bf 9b b5 7d be 06 4c 96 be f6 96 8a be
       -0.5003432 -0.24776308 -0.29354876 -0.270683
000340 2a 69 1a bf 30 01 22 3e 18 26 42 bf de eb ec 3e
       -0.6031672 0.15820765 -0.75839376 0.46273702
000350 17 ef 1f bf 44 4d 28 bc b6 c2 30 3f 80 1a ee bd
       -0.624742 -0.010272328 0.69047105 -0.11626148
000360 7c b1 21 bf 1a f7 a2 3e a4 33 38 be f1 88 08 bf
       -0.63161445 0.3182915 -0.1798845 -0.53333956
000370 f3 ee 82 3f f0 d5 17 3f e3 24 b3 be 6b c8 67 3e
       1.0229172 0.5931082 -0.3498908 0.22635047
000380 39 89 a9 bd d0 9b 9c 3f 74 82 af bd 2f f6 b4 3d
       -0.08278126 1.223505 -0.08569804 0.08836018
000390 e0 9c 18 3e 78 1d 7f 3f c0 14 d2 bd 49 2a 00 bf
       0.14903593 0.9965434 -0.10257864 -0.5006452
0003a0 3f de 1b bf 70 bd a8 3e 57 95 d3 3e c8 f6 c8 bf
       -0.60885996 0.3295703 0.41324875 -1.5700312
0003b0 c5 d1 61 bf 96 46 66 be 04 ee 83 bd 7f 59 5e bf
       -0.8821071 -0.22487864 -0.06441882 -0.8685531
0003c0 9e 47 03 3f 34 03 42 3f 0b 85 51 bf 0e ae 36 bf
       0.51281154 0.7578614 -0.8184363 -0.71359336
0003d0 be 73 18 bf 0b 0f 80 3e 3e 9e 1b 3f 71 29 f9 3e
       -0.5955161 0.25011477 0.60788333 0.4866443
0003e0 b3 8b 4d 3d 2d c4 6a 3e a7 b6 f2 be 10 c9 13 3f
       0.050182056 0.22926398 -0.47404978 0.5772867
0003f0 a6 a9 0e bf cc 5e 2b bf 62 1f e4 bd c7 a7 9f bd
       -0.5572761 -0.66941524 -0.11138798 -0.07795673

score_MLP.fc_layers.0.bias f4 [32]
000000 cc 5b 50 3e 31 7d 06 bf 44 f6 ac bd f2 44 98 be
       0.20347518 -0.52534777 -0.08445409 -0.297401
000010 38 20 2c be 28 bb 9a be 17 ac f5 3e d6 64 97 3a
       -0.16809165 -0.30220914 0.47982857 0.0011550437
000020 01 8a 1e 3e 1f 31 84 3e 68 f4 5f be d2 a9 0d 3e
       0.15482332 0.25818726 -0.21870577 0.13834313
000030 72 be 8f 3d 63 7a e0 3d c2 ef a0 bd d4 b0 d1 be
       0.070187464 0.109608434 -0.0785823 -0.40955222
000040 d7 3a e9 3d 00 46 ac 3e a1 02 d5 be b4 17 0b 3f
       0.11388176 0.33647156 -0.41603568 0.54333043
000050 f8 91 99 be 28 da 93 be 27 a6 f5 bd 58 63 b9 bd
       -0.29994178 -0.28877378 -0.11994582 -0.090521514
000060 a8 56 f5 be 52 ec 8e 3e 71 97 c1 3e 3f 29 70 3e
       -0.47917676 0.27914673 0.37810853 0.23453234
000070 28 d3 03 3f d6 0b 05 3f 48 c1 9a be d0 82 a0 be
       0.51494074 0.51971185 -0.30225587 -0.31349802

score_MLP.fc_layers.1.weight f4 [8, 32]
000000 72 d1 c8 3e a6 0d 85 3d df 34 88 bf a6 94 44 bd
       0.39222294 0.06496744 -1.0641135 -0.047993325
000010 ee e6 18 3f c7 29 df 3e d1 c5 8f bd 61 fc 0e 3f
       0.5972737 0.4358656 -0.07020152 0.5585385
000020 6a 4f 7e be b1 5a 59 be 95 58 43 bf 84 60 ad 3d
       -0.24834982 -0.21226002 -0.7630704 0.084656745
000030 2f e4 8c 3f 84 34 c7 3e 66 51 ae 3d de 5b 9d bf
       1.1007136 0.38907254 0.08511619 -1.2293661
000040 d7 34 98 3e 87 e3 ba be ab 13 64 3e 6d bd b3 be
       0.29727814 -0.36501715 0.22273128 -0.35105458
000050 00 3c aa 3d 69 d9 ef 3e a9 6d c7 3e 12 25 ef 3e
       0.08312225 0.46845558 0.38950852 0.4670797
000060 42 c4 be be bd 8e ff bd 5d af 9d bf e2 6f fc be
       -0.37259108 -0.12478397 -1.2319142 -0.4930411
000070 53 b1 e7 3d 67 38 3f bf 5f 85 12 3f 3a f1 9b 3e
       0.11313119 -0.7469544 0.5723476 0.3045748
000080 b9 22 bb be 9b 6d 11 40 84 f0 a2 3e 8f e0 0f 3e
       -0.3654993 2.2723148 0.31824124 0.14050506
000090 0e c4 ac be 2b c4 8b 3f a7 25 66 3e 4e 48 22 3f
       -0.33743328 1.0919241 0.224753 0.6339158
0000a0 11 ca 07 be 9b ce 83 bf 91 bc 59 be a6 fe 7d 3d
       -0.13260676 -1.0297426 -0.21263339 0.06201043
0000b0 e6 a1 4c be ba 9e 59 3e ef f2 39 bf d2 cf 2d 3f
       -0.19983634 0.21251956 -0.7263631 0.67895234
0000c0 2c f9 6e 3f dc fb 94 bf 45 ab 7b 3f 42 af 2a be
       0.93348956 -1.1639361 0.9830821 -0.16668418
0000d0 ba 80 62 3f 0a 15 58 be 02 73 80 3e b8 2b 84 3e
       0.8847767 -0.21101776 0.25087744 0.25814605
0000e0 a0 87 6e 3d 9a d3 ce bd 09 ac 2e 3e cd df b8 be
       0.05823481 -0.100989535 0.17057814 -0.36108246
0000f0 ad f8 a2 be 0e 8e d6 be b3 80 2e 3f 2e e9 dd 3f
       -0.3183035 -0.41905254 0.6816513 1.7336786
000100 66 18 1e bd 29 4c b0 3e d4 a0 9f bf 70 3a 89 bd
       -0.038597487 0.34433106 -1.2470956 -0.06700599
000110 df 12 35 3f 76 0a fe 3d 30 46 0f bd 86 12 3b 3f
       0.7073192 0.12404339 -0.034979045 0.7307514
000120 f0 4f 65 be bb 51 0d be 76 2b d6 be 93 78 55 3e
       -0.22393775 -0.13800709 -0.41830033 0.20846777
000130 d7 e1 27 3f 5d b7 09 3f 34 ab 22 3d d1 c9 8f bf
       0.6557898 0.53795415 0.039714053 -1.1233464
000140 20 34 8e 3e e5 bf 1f bf 33 ff 0f be fc 8b 99 be
       0.27774143 -0.6240218 -0.14062195 -0.29989612
000150 e4 4f 94 3e 18 8e bf 3e 19 d8 ec 3e 3d bf 37 3e
       0.28967202 0.37413096 0.4625862 0.17944045
000160 37 2a 70 be c3 6a 66 3e 2e fd 9d bf a9 b0 26 bf
       -0.23453604 0.22501664 -1.2342889 -0.6511331
000170 1d 9e 21 3e cc 73 86 bf fb b1 01 3f 50 54 16 3f
       0.15782972 -1.0504088 0.506622 0.587224
000180 14 78 92 3e 40 44 7d 3d b6 77 ad bf fa 62 c1 3d
       0.28607237 0.061832666 -1.3552158 0.094427064
000190 60 fc 41 3f fa 36 06 3f 93 f5 ca 3e 8c 7b 27 3f
       0.7577572 0.5242764 0.39640483 0.6542289
0001a0 ed f5 cb bd 72 34 bb 3d 87 10 35 bf 89 87 c9 3e
       -0.09959016 0.091408625 -0.70728344 0.39361218
0001b0 ea 3b a1 3f cd 93 b9 3e 88 6c 29 3e 7e 21 d3 bf
       1.2596409 0.36245576 0.16545308 -1.6494596
0001c0 b6 75 30 3f 93 5a 51 be 5d 9a 27 bd d6 29 49 3d
       0.6892961 -0.20444708 -0.040918697 0.049112163
0001d0 67 00 62 3f b4 5a 00 3f ee bd 21 3f d4 64 a0 3e
       0.88281864 0.501384 0.63180435 0.31326926
0001e0 be 87 93 bd 93 f8 6c 3e 39 d8 b9 bf c8 92 38 bf
       -0.07203625 0.23141699 -1.4519111 -0.7209897
0001f0 6e de 78 3e f9 21 84 bf 4d 1b 28 3f be c5 2d 3e
       0.243036 -1.0322868 0.6566666 0.16969964
000200 90 12 b2 be 16 8e 18 3f 41 0f 14 c0 fe 6b bb 3e
       -0.34779787 0.59591806 -2.313431 0.3660583
000210 53 95 8d 3f c2 c3 c0 3e 50 b9 6a 3d f4 59 69 3e
       1.1061195 0.3764935 0.057305634 0.2278822
000220 5a d2 95 3e 5d e4 2e be 1b ce 15 bf 7f e2 67 3e
       0.29262048 -0.17079301 -0.58517617 0.22644995
000230 f8 1f 93 3f 07 20 a1 3e 91 10 af 3e 8e 36 57 bf
       1.1494131 0.31469747 0.34192327 -0.8406762
000240 72 6d b7 be c3 8b 93 be bc 65 0f 3f 1f 95 07 bf
       -0.35825688 -0.28817567 0.5601461 -0.52961916
000250 2d 3e b9 be 17 0a c6 3e 93 67 68 3e e6 22 1f 3f
       -0.3618025 0.38679573 0.2269576 0.62162626
000260 26 4e 9b bd f6 c4 e6 be 17 46 05 bf 22 f6 9b be
       -0.07583265 -0.45072144 -0.52060074 -0.30461222
000270 77 96 4b 3e cd 0e 69 bf f3 ab a2 3f 9a c0 c3 3e
       0.19881617 -0.9103821 1.2708725 0.3823288
000280 09 db 1f 3f bc cb dc bf 57 7c 6a be 60 95 13 bd
       0.62443596 -1.7249675 -0.22898994 -0.036031127
000290 1a 72 7d 3f 4f e6 ef be 33 45 2e 3f a0 0e 4e 3f
       0.9900223 -0.468554 0.6807434 0.80491066
0002a0 13 2c 4a 3f 3c 2f c1 3e ab 02 47 3f 09 56 2a 3f
       0.789735 0.3773135 0.77738446 0.6653753
0002b0 28 55 83 3f 97 26 8a 3f ad 74 3b 3f 82 52 25 3d
       1.0260363 1.0793027 0.7322491 0.04036189
0002c0 8a f7 38 bf ec d7 b3 3e b8 84 a6 bf ff 51 24 3f
       -0.72252715 0.35125673 -1.3009253 0.64187616
0002d0 18 da 77 bf f8 32 05 3f 5b a1 97 3f 9b 7c cc bd
       -0.9681716 0.520309 1.1846117 -0.09984704
0002e0 96 2a 5f 3f 1a 6e 05 3f 37 7f 96 be ad 89 c2 be
       0.87174356 0.52121127 -0.29393932 -0.37995663
0002f0 0c 0d 81 3f 4f 91 c5 bb 8f 52 38 bf 37 d4 87 bf
       1.0082107 -0.006029285 -0.72000974 -1.0611638
000300 9f d3 9a bd 6f bf 27 bf b2 67 31 bf 2a 7e 68 3e
       -0.07559895 -0.6552648 -0.6929885 0.22704378
000310 44 99 00 3e 0a 68 85 3f 07 d0 96 3e 9a 19 dd 3e
       0.12558466 1.0422375 0.29455587 0.43183595
000320 15 79 9d be ac d2 96 3d c9 97 6a bf b4 62 1d 3e
       -0.3075644 0.07364401 -0.91637856 0.15369684
000330 2d 79 a8 3f 9f cc cb 3e e0 58 69 3c 7b 5f 60 bf
       1.316198 0.3980455 0.014242381 -0.8764569
000340 e7 1d 19 3f 00 c5 1a 3e c7 11 36 3f 63 87 32 be
       0.5981125 0.15114212 0.71120876 -0.17434458
000350 54 69 bd 3d 2f 3a 0d 3f 13 d5 5e 3e d4 81 bb 3e
       0.09248605 0.55166906 0.21760969 0.36622488
000360 14 55 11 3f 1f e6 9a bd eb 30 95 bf 8c 2b 13 3e
       0.56770444 -0.07563423 -1.1655554 0.1437208
000370 23 3a 2e 3e 01 81 0f bf 20 df 90 3e 22 4e 4d 3e
       0.17014365 -0.5605622 0.2829523 0.20049337
000380 bd 25 51 be 9c 93 42 be 75 f0 42 be e0 d0 69 bc
       -0.20424552 -0.19001621 -0.1903704 -0.014270991
000390 94 5d 33 bd 0b 81 d3 3d da e6 5b be 17 85 95 3a
       -0.043790415 0.10327347 -0.21474782 0.0011407462
0003a0 1e 34 7b bd 23 3d 3e be 47 fd 14 be 32 2f 2b be
       -0.061329 -0.1857801 -0.14549743 -0.16717222
0003b0 36 70 d9 bd 54 6f 3d bd 04 1f a8 3c 35 af ba bd
       -0.10617106 -0.04624875 0.020522602 -0.09115449
0003c0 0f 9c 4c bc ad 9a 2d be bf 08 63 3c 46 d6 8e bd
       -0.012488379 -0.16953535 0.013857066 -0.06974463
0003d0 67 23 b2 bd d1 20 ed bb ca 05 3b bd f0 90 8c bd
       -0.08698159 -0.007236578 -0.045659818 -0.06863582
0003e0 f1 78 31 be 34 c6 95 3d d6 ea fa bc aa 51 94 bd
       -0.17331292 0.07313195 -0.030629557 -0.07242139
0003f0 96 58 29 3d b2 fb 01 bd 1a be b0 bd f2 19 16 be
       0.041344248 -0.031734176 -0.08630009 -0.14658335

score_MLP.fc_layers.1.bias f4 [8]
000000 fa f8 dd bd b4 b1 f2 be 9b 77 91 be 8d 0b fb be
       -0.10838504 -0.47401202 -0.28411564 -0.4903225
000010 ec d3 fb be fe e7 d8 3e 91 2e 06 3e 74 02 5b be
       -0.4918512 0.42364496 0.13103701 -0.21387655

score_MLP.affine_output.weight f4 [1, 8]
000000 99 1e 06 3c 2a b5 d0 be 33 fe e7 bd b9 11 bc be
       0.008186006 -0.40763217 -0.113277815 -0.3673227
000010 b6 b8 35 be f3 7a d1 3e 60 60 37 be 5a 70 b5 bc
       -0.17746243 0.40914115 -0.17907858 -0.0221483

GNN.fc_self.weight f4 [8, 8]
000000 f9 f3 1c 3f 84 d0 20 bf 86 d3 8b 3d 62 0b 06 3f
       0.6130977 -0.6281817 0.06827454 0.5236112
000010 36 dc 3c 3f 26 62 02 bf ce 25 bc 3e c5 e4 98 3e
       0.73773515 -0.5093101 0.36747593 0.29862037
000020 13 e0 6a bf 3c 30 1f 3f 61 f3 2b 3e cb fa fc be
       -0.9174816 0.62182975 0.1679206 -0.4941009
000030 e8 49 bb bd b1 5a 90 be 71 98 00 3d 07 9a 3c be
       -0.09144956 -0.28194192 0.03139538 -0.18418132
000040 1e 21 2b 3d 3f b0 45 bf c8 b7 5d 3f e4 6d 1b 3c
       0.04177963 -0.77222055 0.8660855 0.009486649
000050 51 f1 00 3f d5 80 3d bf 98 20 b9 be b5 8c f0 3e
       0.5036822 -0.7402471 -0.3615768 0.4698235
000060 68 09 41 be 66 79 fa be 50 f8 8b be 08 84 3a 3e
       -0.18851244 -0.48920745 -0.27337885 0.18214428
000070 b5 b7 9b 3d 1a e1 28 3f 88 d5 48 bf a2 13 63 bf
       0.07603399 0.6596848 -0.7845082 -0.8870183
000080 4c df 72 3e d2 42 5a 3e 0b c5 cf 3e a2 a6 a2 be
       0.23717993 0.21314552 0.4058002 -0.31767756
000090 b0 42 27 3e 14 16 62 be 40 0d 77 3f 56 a8 5a 3f
       0.16334033 -0.22078735 0.9650459 0.8541311
0000a0 13 c1 fd be 47 4e 7c 3d 9a 65 0f 3f b0 45 96 be
       -0.49561366 0.06159809 0.56014407 -0.29350042
0000b0 e6 9f 80 bf 1d d2 e1 3e 57 0a 51 bf 6e 56 a7 3e
       -1.0048797 0.44105616 -0.816564 0.32683128
0000c0 67 fc 60 3f 03 98 89 3f e7 74 53 3e 2a be ef be
       0.87885135 1.0749515 0.20650063 -0.4682477
0000d0 31 ba 52 bc 1f 17 8a be 29 b8 4a bf 8b 79 fd 3e
       -0.012861774 -0.26970765 -0.79187256 0.49506792
0000e0 4c 99 aa 3e 85 9a 8f 3e 30 b5 3d bf 53 2c 5e 3f
       0.3332008 0.28047577 -0.74104595 0.86786383
0000f0 d6 ca ef be 5e b7 41 bf 4c fd bf be 9e c0 2b be
       -0.4683444 -0.7567042 -0.37497938 -0.16772696

GNN.fc_self.bias f4 [8]
000000 31 11 bf 3c 92 96 1a bf 0b 7a fd bd 5b 1c 04 3f
       0.023323627 -0.60386 -0.123767935 0.51605767
000010 59 34 b5 3e c7 db a3 3e 90 44 e3 3d 2b 41 41 3f
       0.353915 0.32003614 0.11097062 0.75490063

GNN.fc_neigh.weight f4 [8, 8]
000000 50 5d 89 3f 37 2f f7 be c7 49 08 bf ab e8 96 3f
       1.0731602 -0.4827821 -0.53237575 1.1789755
000010 0f 80 78 3d 69 b7 46 3f 35 d8 1b 3f 2f dc 76 3f
       0.060669 0.7762361 0.6087678 0.96429724
000020 4f 17 03 bf 16 45 60 3f 4d 0a 87 be 12 00 2a 3f
       -0.5120744 0.87605417 -0.26375046 0.6640636
000030 7a 88 de 3d fe 65 82 be d8 db 30 bf 47 0b 39 3f
       0.108658746 -0.2546844 -0.69085455 0.7228283
000040 e4 18 1a bf d7 03 a1 3f 40 63 3a bf 53 d0 88 bf
       -0.6019423 1.2579297 -0.72807693 -1.0688576
000050 10 df 9e bf 0d 90 90 be 68 a9 c5 be 28 2d 83 bf
       -1.2411823 -0.28234902 -0.3860581 -1.0248156
000060 ca 64 04 bf 85 e6 bc bd 76 2a 0a bf 5b cd 0e 3f
       -0.5171629 -0.092236556 -0.5397104 0.557821
000070 40 d5 30 bd 45 1c f5 bd ed 71 b2 3d 9b a5 8a be
       -0.04317212 -0.119682826 0.08713136 -0.27079472
000080 b7 e8 2c bc 12 13 45 bf 30 39 88 bf c1 9c 85 3f
       -0.01055353 -0.76982224 -1.0642452 1.0438462
000090 65 e4 71 bf b5 f9 73 bd f1 b7 2b 3e ef 16 3a bf
       -0.9448913 -0.05956431 0.16769387 -0.72691244
0000a0 7d 82 03 3e 69 60 93 be 2c ee 13 3f 43 ff d1 3e
       0.12842746 -0.28784493 0.57785296 0.41015062
0000b0 2a 36 45 be f8 5b 24 3e b4 8d 06 3f bb c6 9f be
       -0.19258943 0.16050708 0.5255997 -0.31206307
0000c0 7e d1 27 bf 8d be 48 be 70 a8 36 be d4 72 0b bf
       -0.65554035 -0.1960394 -0.17837691 -0.5447209
0000d0 82 37 27 3f 9b fa 3c 3e 22 53 2c 3f 0f b0 d7 be
       0.65319073 0.18454973 0.6731435 -0.4212651
0000e0 f5 c9 81 be 8c 62 fd be 59 ef d1 3c 90 f1 85 3f
       -0.25349393 -0.49489248 0.025626825 1.0464344
0000f0 3b aa 3d 3e 45 15 d3 3e f6 58 08 3e db 51 b3 be
       0.18521969 0.41227165 0.13315186 -0.35023388

GNN.fc_neigh.bias f4 [8]
000000 95 f0 b4 be 18 1b df be 70 17 d3 be 99 8d 66 3f
       -0.353398 -0.43575358 -0.4122882 0.9005981
000010 f8 87 61 3f a2 8b b4 3e 22 1a 62 3e 0d 23 cb 3e
       0.88098097 0.3526278 0.22080281 0.3967518
